…
tDataDirectory(DATASET_DIR)\n","model_trainer.trainModel(\n","   num_objects=2, num_experiments=100, enhance_data=True,\n","   batch_size=10, show_network_summary=True)"],"execution_count":7,"outputs":[{"output_type":"stream","text":["Model: \"model_1\"\n","__________________________________________________________________________________________________\n","Layer (type)                    Output Shape         Param #     Connected to                     \n","==================================================================================================\n","input_2 (InputLayer)            [(None, 224, 224, 3) 0                                            \n","__________________________________________________________________________________________________\n","conv2d_53 (Conv2D)              (None, 112, 112, 64) 9472        input_2[0][0]                    \n","__________________________________________________________________________________________________\n","batch_normalization_53 (BatchNo (None, 112, 112, 64) 256         conv2d_53[0][0]                  \n","__________________________________________________________________________________________________\n","activation_50 (Activation)      (None, 112, 112, 64) 0           batch_normalization_53[0][0]     \n","__________________________________________________________________________________________________\n","max_pooling2d_1 (MaxPooling2D)  (None, 55, 55, 64)   0           activation_50[0][0]              \n","__________________________________________________________________________________________________\n","conv2d_55 (Conv2D)              (None, 55, 55, 64)   4160        max_pooling2d_1[0][0]            \n","__________________________________________________________________________________________________\n","batch_normalization_55 (BatchNo (None, 55, 55, 64)   256         conv2d_55[0][0]                  \n","__________________________________________________________________________________________________\n","activation_51 (Activation)      (None, 55, 55, 64)   0           batch_normalization_55[0][0]     \n","__________________________________________________________________________________________________\n","conv2d_56 (Conv2D)              (None, 55, 55, 64)   36928       activation_51[0][0]              \n","__________________________________________________________________________________________________\n","batch_normalization_56 (BatchNo (None, 55, 55, 64)   256         conv2d_56[0][0]                  \n","__________________________________________________________________________________________________\n","activation_52 (Activation)      (None, 55, 55, 64)   0           batch_normalization_56[0][0]     \n","__________________________________________________________________________________________________\n","conv2d_57 (Conv2D)              (None, 55, 55, 256)  16640       activation_52[0][0]              \n","__________________________________________________________________________________________________\n","conv2d_54 (Conv2D)              (None, 55, 55, 256)  16640       max_pooling2d_1[0][0]            \n","__________________________________________________________________________________________________\n","batch_normalization_57 (BatchNo (None, 55, 55, 256)  1024        conv2d_57[0][0]                  \n","__________________________________________________________________________________________________\n","batch_normalization_54 (BatchNo (None, 55, 55, 256)  1024        conv2d_54[0][0]                  \n","__________________________________________________________________________________________________\n","add_16 (Add)                    (None, 55, 55, 256)  0           batch_normalization_57[0][0]     \n","                                                                 batch_normalization_54[0][0]     \n","__________________________________________________________________________________________________\n","activation_53 (Activation)      (None, 55, 55, 256)  0           add_16[0][0]                     \n","__________________________________________________________________________________________________\n","conv2d_58 (Conv2D)              (None, 55, 55, 64)   16448       activation_53[0][0]              \n","__________________________________________________________________________________________________\n","batch_normalization_58 (BatchNo (None, 55, 55, 64)   256         conv2d_58[0][0]                  \n","__________________________________________________________________________________________________\n","activation_54 (Activation)      (None, 55, 55, 64)   0           batch_normalization_58[0][0]     \n","__________________________________________________________________________________________________\n","conv2d_59 (Conv2D)              (None, 55, 55, 64)   36928       activation_54[0][0]              \n","__________________________________________________________________________________________________\n","batch_normalization_59 (BatchNo (None, 55, 55, 64)   256         conv2d_59[0][0]                  \n","__________________________________________________________________________________________________\n","activation_55 (Activation)      (None, 55, 55, 64)   0           batch_normalization_59[0][0]     \n","__________________________________________________________________________________________________\n","conv2d_60 (Conv2D)              (None, 55, 55, 256)  16640       activation_55[0][0]              \n","__________________________________________________________________________________________________\n","batch_normalization_60 (BatchNo (None, 55, 55, 256)  1024        conv2d_60[0][0]                  \n","__________________________________________________________________________________________________\n","add_17 (Add)                    (None, 55, 55, 256)  0           batch_normalization_60[0][0]     \n","                                                                 activation_53[0][0]              \n","__________________________________________________________________________________________________\n","activation_56 (Activation)      (None, 55, 55, 256)  0           add_17[0][0]                     \n","__________________________________________________________________________________________________\n","conv2d_61 (Conv2D)              (None, 55, 55, 64)   16448       activation_56[0][0]              \n","__________________________________________________________________________________________________\n","batch_normalization_61 (BatchNo (None, 55, 55, 64)   256         conv2d_61[0][0]                  \n","__________________________________________________________________________________________________\n","activation_57 (Activation)      (None, 55, 55, 64)   0           batch_normalization_61[0][0]     \n","__________________________________________________________________________________________________\n","conv2d_62 (Conv2D)              (None, 55, 55, 64)   36928       activation_57[0][0]              \n","__________________________________________________________________________________________________\n","batch_normalization_62 (BatchNo (None, 55, 55, 64)   256         conv2d_62[0][0]                  \n","__________________________________________________________________________________________________\n","activation_58 (Activation)      (None, 55, 55, 64)   0           batch_normalization_62[0][0]     \n","__________________________________________________________________________________________________\n","conv2d_63 (Conv2D)              (None, 55, 55, 256)  16640       activation_58[0][0]              \n","__________________________________________________________________________________________________\n","batch_normalization_63 (BatchNo (None, 55, 55, 256)  1024        conv2d_63[0][0]                  \n","__________________________________________________________________________________________________\n","add_18 (Add)                    (None, 55, 55, 256)  0           batch_normalization_63[0][0]     \n","                                                                 activation_56[0][0]              \n","__________________________________________________________________________________________________\n","activation_59 (Activation)      (None, 55, 55, 256)  0           add_18[0][0]                     \n","__________________________________________________________________________________________________\n","conv2d_65 (Conv2D)              (None, 28, 28, 128)  32896       activation_59[0][0]              \n","__________________________________________________________________________________________________\n","batch_normalization_65 (BatchNo (None, 28, 28, 128)  512         conv2d_65[0][0]                  \n","__________________________________________________________________________________________________\n","activation_60 (Activation)      (None, 28, 28, 128)  0           batch_normalization_65[0][0]     \n","__________________________________________________________________________________________________\n","conv2d_66 (Conv2D)              (None, 28, 28, 128)  147584      activation_60[0][0]              \n","__________________________________________________________________________________________________\n","batch_normalization_66 (BatchNo (None, 28, 28, 128)  512         conv2d_66[0][0]                  \n","__________________________________________________________________________________________________\n","activation_61 (Activation)      (None, 28, 28, 128)  0           batch_normalization_66[0][0]     \n","__________________________________________________________________________________________________\n","conv2d_67 (Conv2D)              (None, 28, 28, 512)  66048       activation_61[0][0]              \n","__________________________________________________________________________________________________\n","conv2d_64 (Conv2D)              (None, 28, 28, 512)  131584      activation_59[0][0]              \n","__________________________________________________________________________________________________\n","batch_normalization_67 (BatchNo (None, 28, 28, 512)  2048        conv2d_67[0][0]                  \n","__________________________________________________________________________________________________\n","batch_normalization_64 (BatchNo (None, 28, 28, 512)  2048        conv2d_64[0][0]                  \n","__________________________________________________________________________________________________\n","add_19 (Add)                    (None, 28, 28, 512)  0           batch_normalization_67[0][0]     \n","                                                                 batch_normalization_64[0][0]     \n","__________________________________________________________________________________________________\n","activation_62 (Activation)      (None, 28, 28, 512)  0           add_19[0][0]                     \n","__________________________________________________________________________________________________\n","conv2d_68 (Conv2D)              (None, 28, 28, 128)  65664       activation_62[0][0]              \n","__________________________________________________________________________________________________\n","batch_normalization_68 (BatchNo (None, 28, 28, 128)  512         conv2d_68[0][0]                  \n","__________________________________________________________________________________________________\n","activation_63 (Activation)      (None, 28, 28, 128)  0           batch_normalization_68[0][0]     \n","__________________________________________________________________________________________________\n","conv2d_69 (Conv2D)              (None, 28, 28, 128)  147584      activation_63[0][0]              \n","__________________________________________________________________________________________________\n","batch_normalization_69 (BatchNo (None, 28, 28, 128)  512         conv2d_69[0][0]                  \n","__________________________________________________________________________________________________\n","activation_64 (Activation)      (None, 28, 28, 128)  0           batch_normalization_69[0][0]     \n","__________________________________________________________________________________________________\n","conv2d_70 (Conv2D)              (None, 28, 28, 512)  66048       activation_64[0][0]              \n","__________________________________________________________________________________________________\n","batch_normalization_70 (BatchNo (None, 28, 28, 512)  2048        conv2d_70[0][0]                  \n","__________________________________________________________________________________________________\n","add_20 (Add)                    (None, 28, 28, 512)  0           batch_normalization_70[0][0]     \n","                                                                 activation_62[0][0]              \n","__________________________________________________________________________________________________\n","activation_65 (Activation)      (None, 28, 28, 512)  0           add_20[0][0]                     \n","__________________________________________________________________________________________________\n","conv2d_71 (Conv2D)              (None, 28, 28, 128)  65664       activation_65[0][0]              \n","__________________________________________________________________________________________________\n","batch_normalization_71 (BatchNo (None, 28, 28, 128)  512         conv2d_71[0][0]                  \n","__________________________________________________________________________________________________\n","activation_66 (Activation)      (None, 28, 28, 128)  0           batch_normalization_71[0][0]     \n","__________________________________________________________________________________________________\n","conv2d_72 (Conv2D)              (None, 28, 28, 128)  147584      activation_66[0][0]              \n","__________________________________________________________________________________________________\n","batch_normalization_72 (BatchNo (None, 28, 28, 128)  512         conv2d_72[0][0]                  \n","__________________________________________________________________________________________________\n","activation_67 (Activation)      (None, 28, 28, 128)  0           batch_normalization_72[0][0]     \n","__________________________________________________________________________________________________\n","conv2d_73 (Conv2D)              (None, 28, 28, 512)  66048       activation_67[0][0]              \n","__________________________________________________________________________________________________\n","batch_normalization_73 (BatchNo (None, 28, 28, 512)  2048        conv2d_73[0][0]                  \n","__________________________________________________________________________________________________\n","add_21 (Add)                    (None, 28, 28, 512)  0           batch_normalization_73[0][0]     \n","                                                                 activation_65[0][0]              \n","__________________________________________________________________________________________________\n","activation_68 (Activation)      (None, 28, 28, 512)  0           add_21[0][0]                     \n","__________________________________________________________________________________________________\n","conv2d_74 (Conv2D)              (None, 28, 28, 128)  65664       activation_68[0][0]              \n","__________________________________________________________________________________________________\n","batch_normalization_74 (BatchNo (None, 28, 28, 128)  512         conv2d_74[0][0]                  \n","__________________________________________________________________________________________________\n","activation_69 (Activation)      (None, 28, 28, 128)  0           batch_normalization_74[0][0]     \n","__________________________________________________________________________________________________\n","conv2d_75 (Conv2D)              (None, 28, 28, 128)  147584      activation_69[0][0]              \n","__________________________________________________________________________________________________\n","batch_normalization_75 (BatchNo (None, 28, 28, 128)  512         conv2d_75[0][0]                  \n","__________________________________________________________________________________________________\n","activation_70 (Activation)      (None, 28, 28, 128)  0           batch_normalization_75[0][0]     \n","__________________________________________________________________________________________________\n","conv2d_76 (Conv2D)              (None, 28, 28, 512)  66048       activation_70[0][0]              \n","__________________________________________________________________________________________________\n","batch_normalization_76 (BatchNo (None, 28, 28, 512)  2048        conv2d_76[0][0]                  \n","__________________________________________________________________________________________________\n","add_22 (Add)                    (None, 28, 28, 512)  0           batch_normalization_76[0][0]     \n","                                                                 activation_68[0][0]              \n","__________________________________________________________________________________________________\n","activation_71 (Activation)      (None, 28, 28, 512)  0           add_22[0][0]                     \n","__________________________________________________________________________________________________\n","conv2d_78 (Conv2D)              (None, 14, 14, 256)  131328      activation_71[0][0]              \n","__________________________________________________________________________________________________\n","batch_normalization_78 (BatchNo (None, 14, 14, 256)  1024        conv2d_78[0][0]                  \n","__________________________________________________________________________________________________\n","activation_72 (Activation)      (None, 14, 14, 256)  0           batch_normalization_78[0][0]     \n","__________________________________________________________________________________________________\n","conv2d_79 (Conv2D)              (None, 14, 14, 256)  590080      activation_72[0][0]              \n","__________________________________________________________________________________________________\n","batch_normalization_79 (BatchNo (None, 14, 14, 256)  1024        conv2d_79[0][0]                  \n","__________________________________________________________________________________________________\n","activation_73 (Activation)      (None, 14, 14, 256)  0           batch_normalization_79[0][0]     \n","__________________________________________________________________________________________________\n","conv2d_80 (Conv2D)              (None, 14, 14, 1024) 263168      activation_73[0][0]              \n","__________________________________________________________________________________________________\n","conv2d_77 (Conv2D)              (None, 14, 14, 1024) 525312      activation_71[0][0]              \n","__________________________________________________________________________________________________\n","batch_normalization_80 (BatchNo (None, 14, 14, 1024) 4096        conv2d_80[0][0]                  \n","__________________________________________________________________________________________________\n","batch_normalization_77 (BatchNo (None, 14, 14, 1024) 4096        conv2d_77[0][0]                  \n","__________________________________________________________________________________________________\n","add_23 (Add)                    (None, 14, 14, 1024) 0           batch_normalization_80[0][0]     \n","                                                                 batch_normalization_77[0][0]     \n","__________________________________________________________________________________________________\n","activation_74 (Activation)      (None, 14, 14, 1024) 0           add_23[0][0]                     \n","__________________________________________________________________________________________________\n","conv2d_81 (Conv2D)              (None, 14, 14, 256)  262400      activation_74[0][0]              \n","__________________________________________________________________________________________________\n","batch_normalization_81 (BatchNo (None, 14, 14, 256)  1024        conv2d_81[0][0]                  \n","__________________________________________________________________________________________________\n","activation_75 (Activation)      (None, 14, 14, 256)  0           batch_normalization_81[0][0]     \n","__________________________________________________________________________________________________\n","conv2d_82 (Conv2D)              (None, 14, 14, 256)  590080      activation_75[0][0]              \n","__________________________________________________________________________________________________\n","batch_normalization_82 (BatchNo (None, 14, 14, 256)  1024        conv2d_82[0][0]                  \n","__________________________________________________________________________________________________\n","activation_76 (Activation)      (None, 14, 14, 256)  0           batch_normalization_82[0][0]     \n","__________________________________________________________________________________________________\n","conv2d_83 (Conv2D)              (None, 14, 14, 1024) 263168      activation_76[0][0]              \n","__________________________________________________________________________________________________\n","batch_normalization_83 (BatchNo (None, 14, 14, 1024) 4096        conv2d_83[0][0]                  \n","__________________________________________________________________________________________________\n","add_24 (Add)                    (None, 14, 14, 1024) 0           batch_normalization_83[0][0]     \n","                                                                 activation_74[0][0]              \n","__________________________________________________________________________________________________\n","activation_77 (Activation)      (None, 14, 14, 1024) 0           add_24[0][0]                     \n","__________________________________________________________________________________________________\n","conv2d_84 (Conv2D)              (None, 14, 14, 256)  262400      activation_77[0][0]              \n","__________________________________________________________________________________________________\n","batch_normalization_84 (BatchNo (None, 14, 14, 256)  1024        conv2d_84[0][0]                  \n","__________________________________________________________________________________________________\n","activation_78 (Activation)      (None, 14, 14, 256)  0           batch_normalization_84[0][0]     \n","__________________________________________________________________________________________________\n","conv2d_85 (Conv2D)              (None, 14, 14, 256)  590080      activation_78[0][0]              \n","__________________________________________________________________________________________________\n","batch_normalization_85 (BatchNo (None, 14, 14, 256)  1024        conv2d_85[0][0]                  \n","__________________________________________________________________________________________________\n","activation_79 (Activation)      (None, 14, 14, 256)  0           batch_normalization_85[0][0]     \n","__________________________________________________________________________________________________\n","conv2d_86 (Conv2D)              (None, 14, 14, 1024) 263168      activation_79[0][0]              \n","__________________________________________________________________________________________________\n","batch_normalization_86 (BatchNo (None, 14, 14, 1024) 4096        conv2d_86[0][0]                  \n","__________________________________________________________________________________________________\n","add_25 (Add)                    (None, 14, 14, 1024) 0           batch_normalization_86[0][0]     \n","                                                                 activation_77[0][0]              \n","__________________________________________________________________________________________________\n","activation_80 (Activation)      (None, 14, 14, 1024) 0           add_25[0][0]                     \n","__________________________________________________________________________________________________\n","conv2d_87 (Conv2D)              (None, 14, 14, 256)  262400      activation_80[0][0]              \n","__________________________________________________________________________________________________\n","batch_normalization_87 (BatchNo (None, 14, 14, 256)  1024        conv2d_87[0][0]                  \n","__________________________________________________________________________________________________\n","activation_81 (Activation)      (None, 14, 14, 256)  0           batch_normalization_87[0][0]     \n","__________________________________________________________________________________________________\n","conv2d_88 (Conv2D)              (None, 14, 14, 256)  590080      activation_81[0][0]              \n","__________________________________________________________________________________________________\n","batch_normalization_88 (BatchNo (None, 14, 14, 256)  1024        conv2d_88[0][0]                  \n","__________________________________________________________________________________________________\n","activation_82 (Activation)      (None, 14, 14, 256)  0           batch_normalization_88[0][0]     \n","__________________________________________________________________________________________________\n","conv2d_89 (Conv2D)              (None, 14, 14, 1024) 263168      activation_82[0][0]              \n","__________________________________________________________________________________________________\n","batch_normalization_89 (BatchNo (None, 14, 14, 1024) 4096        conv2d_89[0][0]                  \n","__________________________________________________________________________________________________\n","add_26 (Add)                    (None, 14, 14, 1024) 0           batch_normalization_89[0][0]     \n","                                                                 activation_80[0][0]              \n","__________________________________________________________________________________________________\n","activation_83 (Activation)      (None, 14, 14, 1024) 0           add_26[0][0]                     \n","__________________________________________________________________________________________________\n","conv2d_90 (Conv2D)              (None, 14, 14, 256)  262400      activation_83[0][0]              \n","__________________________________________________________________________________________________\n","batch_normalization_90 (BatchNo (None, 14, 14, 256)  1024        conv2d_90[0][0]                  \n","__________________________________________________________________________________________________\n","activation_84 (Activation)      (None, 14, 14, 256)  0           batch_normalization_90[0][0]     \n","__________________________________________________________________________________________________\n","conv2d_91 (Conv2D)              (None, 14, 14, 256)  590080      activation_84[0][0]              \n","__________________________________________________________________________________________________\n","batch_normalization_91 (BatchNo (None, 14, 14, 256)  1024        conv2d_91[0][0]                  \n","__________________________________________________________________________________________________\n","activation_85 (Activation)      (None, 14, 14, 256)  0           batch_normalization_91[0][0]     \n","__________________________________________________________________________________________________\n","conv2d_92 (Conv2D)              (None, 14, 14, 1024) 263168      activation_85[0][0]              \n","__________________________________________________________________________________________________\n","batch_normalization_92 (BatchNo (None, 14, 14, 1024) 4096        conv2d_92[0][0]                  \n","__________________________________________________________________________________________________\n","add_27 (Add)                    (None, 14, 14, 1024) 0           batch_normalization_92[0][0]     \n","                                                                 activation_83[0][0]              \n","__________________________________________________________________________________________________\n","activation_86 (Activation)      (None, 14, 14, 1024) 0           add_27[0][0]                     \n","__________________________________________________________________________________________________\n","conv2d_93 (Conv2D)              (None, 14, 14, 256)  262400      activation_86[0][0]              \n","__________________________________________________________________________________________________\n","batch_normalization_93 (BatchNo (None, 14, 14, 256)  1024        conv2d_93[0][0]                  \n","__________________________________________________________________________________________________\n","activation_87 (Activation)      (None, 14, 14, 256)  0           batch_normalization_93[0][0]     \n","__________________________________________________________________________________________________\n","conv2d_94 (Conv2D)              (None, 14, 14, 256)  590080      activation_87[0][0]              \n","__________________________________________________________________________________________________\n","batch_normalization_94 (BatchNo (None, 14, 14, 256)  1024        conv2d_94[0][0]                  \n","__________________________________________________________________________________________________\n","activation_88 (Activation)      (None, 14, 14, 256)  0           batch_normalization_94[0][0]     \n","__________________________________________________________________________________________________\n","conv2d_95 (Conv2D)              (None, 14, 14, 1024) 263168      activation_88[0][0]              \n","__________________________________________________________________________________________________\n","batch_normalization_95 (BatchNo (None, 14, 14, 1024) 4096        conv2d_95[0][0]                  \n","__________________________________________________________________________________________________\n","add_28 (Add)                    (None, 14, 14, 1024) 0           batch_normalization_95[0][0]     \n","                                                                 activation_86[0][0]              \n","__________________________________________________________________________________________________\n","activation_89 (Activation)      (None, 14, 14, 1024) 0           add_28[0][0]                     \n","__________________________________________________________________________________________________\n","conv2d_97 (Conv2D)              (None, 7, 7, 512)    524800      activation_89[0][0]              \n","__________________________________________________________________________________________________\n","batch_normalization_97 (BatchNo (None, 7, 7, 512)    2048        conv2d_97[0][0]                  \n","__________________________________________________________________________________________________\n","activation_90 (Activation)      (None, 7, 7, 512)    0           batch_normalization_97[0][0]     \n","__________________________________________________________________________________________________\n","conv2d_98 (Conv2D)              (None, 7, 7, 512)    2359808     activation_90[0][0]              \n","__________________________________________________________________________________________________\n","batch_normalization_98 (BatchNo (None, 7, 7, 512)    2048        conv2d_98[0][0]                  \n","__________________________________________________________________________________________________\n","activation_91 (Activation)      (None, 7, 7, 512)    0           batch_normalization_98[0][0]     \n","__________________________________________________________________________________________________\n","conv2d_99 (Conv2D)              (None, 7, 7, 2048)   1050624     activation_91[0][0]              \n","__________________________________________________________________________________________________\n","conv2d_96 (Conv2D)              (None, 7, 7, 2048)   2099200     activation_89[0][0]              \n","__________________________________________________________________________________________________\n","batch_normalization_99 (BatchNo (None, 7, 7, 2048)   8192        conv2d_99[0][0]                  \n","__________________________________________________________________________________________________\n","batch_normalization_96 (BatchNo (None, 7, 7, 2048)   8192        conv2d_96[0][0]                  \n","__________________________________________________________________________________________________\n","add_29 (Add)                    (None, 7, 7, 2048)   0           batch_normalization_99[0][0]     \n","                                                                 batch_normalization_96[0][0]     \n","__________________________________________________________________________________________________\n","activation_92 (Activation)      (None, 7, 7, 2048)   0           add_29[0][0]                     \n","__________________________________________________________________________________________________\n","conv2d_100 (Conv2D)             (None, 7, 7, 512)    1049088     activation_92[0][0]              \n","__________________________________________________________________________________________________\n","batch_normalization_100 (BatchN (None, 7, 7, 512)    2048        conv2d_100[0][0]                 \n","__________________________________________________________________________________________________\n","activation_93 (Activation)      (None, 7, 7, 512)    0           batch_normalization_100[0][0]    \n","__________________________________________________________________________________________________\n","conv2d_101 (Conv2D)             (None, 7, 7, 512)    2359808     activation_93[0][0]              \n","__________________________________________________________________________________________________\n","batch_normalization_101 (BatchN (None, 7, 7, 512)    2048        conv2d_101[0][0]                 \n","__________________________________________________________________________________________________\n","activation_94 (Activation)      (None, 7, 7, 512)    0           batch_normalization_101[0][0]    \n","__________________________________________________________________________________________________\n","conv2d_102 (Conv2D)             (None, 7, 7, 2048)   1050624     activation_94[0][0]              \n","__________________________________________________________________________________________________\n","batch_normalization_102 (BatchN (None, 7, 7, 2048)   8192        conv2d_102[0][0]                 \n","__________________________________________________________________________________________________\n","add_30 (Add)                    (None, 7, 7, 2048)   0           batch_normalization_102[0][0]    \n","                                                                 activation_92[0][0]              \n","__________________________________________________________________________________________________\n","activation_95 (Activation)      (None, 7, 7, 2048)   0           add_30[0][0]                     \n","__________________________________________________________________________________________________\n","conv2d_103 (Conv2D)             (None, 7, 7, 512)    1049088     activation_95[0][0]              \n","__________________________________________________________________________________________________\n","batch_normalization_103 (BatchN (None, 7, 7, 512)    2048        conv2d_103[0][0]                 \n","__________________________________________________________________________________________________\n","activation_96 (Activation)      (None, 7, 7, 512)    0           batch_normalization_103[0][0]    \n","__________________________________________________________________________________________________\n","conv2d_104 (Conv2D)             (None, 7, 7, 512)    2359808     activation_96[0][0]              \n","__________________________________________________________________________________________________\n","batch_normalization_104 (BatchN (None, 7, 7, 512)    2048        conv2d_104[0][0]                 \n","__________________________________________________________________________________________________\n","activation_97 (Activation)      (None, 7, 7, 512)    0           batch_normalization_104[0][0]    \n","__________________________________________________________________________________________________\n","conv2d_105 (Conv2D)             (None, 7, 7, 2048)   1050624     activation_97[0][0]              \n","__________________________________________________________________________________________________\n","batch_normalization_105 (BatchN (None, 7, 7, 2048)   8192        conv2d_105[0][0]                 \n","__________________________________________________________________________________________________\n","add_31 (Add)                    (None, 7, 7, 2048)   0           batch_normalization_105[0][0]    \n","                                                                 activation_95[0][0]              \n","__________________________________________________________________________________________________\n","activation_98 (Activation)      (None, 7, 7, 2048)   0           add_31[0][0]                     \n","__________________________________________________________________________________________________\n","global_avg_pooling (GlobalAvera (None, 2048)         0           activation_98[0][0]              \n","__________________________________________________________________________________________________\n","dense_1 (Dense)                 (None, 2)            4098        global_avg_pooling[0][0]         \n","__________________________________________________________________________________________________\n","activation_99 (Activation)      (None, 2)            0           dense_1[0][0]                    \n","==================================================================================================\n","Total params: 23,591,810\n","Trainable params: 23,538,690\n","Non-trainable params: 53,120\n","__________________________________________________________________________________________________\n","WARNING:tensorflow:`period` argument is deprecated
…
